app/src/main/ml/model_float16.tflite (tflite, 455540 bytes, 4 tensors)

sequential/embedding/embedding_lookup/54087 f2 [10003, 16]
0.00782 0.01033 -0.00138 -0.00792 -0.001304 -0.04025 -0.01511 0.02733
0.03384 -0.00828 0.006065 0.001178 0.02289 -0.001513 0.001319 -0.002724
0.0866 -0.1078 -0.1298 0.1231 -0.0927 0.11237 0.074 -0.0709
-0.0687 0.1019 -0.1451 -0.1043 -0.1055 0.134 0.1267 -0.101
-0.2374 -0.2158 0.00223 0.088 -0.00452 0.0438 0.2637 -0.2942
-0.1198 0.10016 -0.9556 -0.375 -0.1061 0.0249 0.0592 -0.0926
-0.11725 -0.1536 -0.0695 0.10077 -0.05316 0.0997 0.1488 -0.2078
-0.1423 0.0835 -0.606 -0.2296 -0.10223 0.04755 -0.004192 -0.05804
0.01956 -0.117 -0.08124 0.0572 -0.04663 0.1215 0.115 -0.1632
-0.11444 0.136 -0.4055 -0.1869 -0.05273 0.0775 0.07544 -0.001247
0.1714 0.04947 -0.0356 -0.0838 0.0001696 -0.01294 -0.04282 0.0294
0.05438 0.08466 0.06152 0.0591 -0.04236 0.03754 0.044 0.0412
0.2195 -0.1462 -0.1622 0.146 -0.2192 0.2346 0.1923 -0.2002
-0.1781 0.171 -0.4114 -0.2438 -0.2488 0.2189 0.2179 -0.1614
-0.1545 -0.2158 -0.09 0.2695 -0.1108 0.1808 0.291 -0.3665
-0.2113 0.2253 -0.6777 -0.353 -0.242 0.1566 0.1464 -0.1855
-0.04764 -0.1868 -0.1365 0.1592 -0.1685 0.10803 0.3403 -0.3018
-0.2253 0.2317 -0.623 -0.3152 -0.1465 0.0694 0.0799 -0.1461
0.03082 -0.124 -0.104 0.0837 -0.1169 0.0829 0.12335 -0.1
-0.1361 0.1301 -0.1884 -0.08295 -0.1436 0.1339 0.1565 -0.0908
-0.0982 -0.1409 0.02647 0.07166 0.03 0.008156 0.1414 -0.1499
-0.1073 0.1261 -0.513 -0.1676 -0.01938 0.002733 0.001093 -0.09143
0.1159 -0.1702 -0.1708 0.1605 -0.10626 0.168 0.157 -0.1951
-0.1575 0.1732 -0.2499 -0.11145 -0.1752 0.0882 0.1857 -0.1727
-0.3284 -0.0574 0.1167 0.03857 0.1112 -0.094 0.1365 -0.1321
0.04395 0.012375 -0.6943 -0.1317 -0.000693 -0.1886 -0.0555 0.01342
0.2634 -0.2725 -0.2161 0.2429 -0.223 0.2397 0.1918 -0.2339
-0.2445 0.2191 -0.2656 -0.2424 -0.2854 0.2051 0.3008 -0.2617
0.06537 0.04147 0.10583 -0.1179 0.0885 -0.104 -0.05838 0.0583
0.1354 -0.04523 -0.003767 0.1349 0.1595 0.000389 -0.09106 0.07745
0.2754 0.09344 -0.06122 -0.0739 0.007904 0.0547 -0.0952 0.0868
0.0655 0.0695 0.1945 0.1268 0.002909 0.02147 -0.01028 0.04132
00000000: 0120 4a21 a795 0ea0 5795 27a9 bca3 ff26
00000010: 5528 3da0 361e d314 dc25 3296 6715 9499
00000020: 8b2d e6ae 27b0 e12f efad 312f bc2c 8aac
00000030: 66ac 862e a5b0 adae c1ae 4a30 0e30 77ae
00000040: 99b3 e8b2 9118 a22d a19c 9b29 3834 b5b4
00000050: abaf 692e a5bb 00b6 caae 6026 942b edad
00000060: 81af eab0 73ac 732e ceaa 612e c330 a6b2
00000070: 8eb0 582d d9b8 59b3 8bae 162a 4b9c 6eab
00000080: 0225 7daf 33ad 522b f8a9 c72f 5c2f 39b1
00000090: 53af 5a30 7db6 fbb1 c0aa f62c d42c 1c95
000000a0: 7c31 552a 8fa8 5dad 8f09 a0a2 7ba9 8727
000000b0: f62a 6b2d e02b 912b 6ca9 ce28 a229 4629
000000c0: 0633 aeb0 31b1 ac30 04b3 8233 2732 68b2
000000d0: b3b1 7931 95b6 cdb3 f6b3 0133 f932 2ab1
000000e0: f2b0 e8b2 c3ad 5034 17af c931 a834 ddb5
000000f0: c3b2 3633 6cb9 a6b5 beb3 0331 af30 f0b1
00000100: 19aa fab1 5eb0 1831 64b1 ea2e 7235 d4b4
00000110: 36b3 6a33 fcb8 0bb5 b0b0 712c 1d2d adb0
00000120: e427 f0af a8ae 5b2d 7baf 4e2d e52f 66ae
00000130: 5bb0 2a30 07b2 4fad 98b0 4930 0231 d0ad
00000140: 49ae 82b0 c726 962c ae27 2d20 8630 ccb0
00000150: deae 0930 1bb8 5db1 f6a4 9919 7a14 daad
00000160: 6b2f 72b1 77b1 2331 cdae 6031 0631 3eb2
00000170: 0ab1 8b31 ffb3 22af 9bb1 a52d f131 87b1
00000180: 41b5 59ab 782f f028 1e2f 04ae 5e30 3ab0
00000190: a029 5622 8eb9 37b0 ad91 09b2 1bab df22
000001a0: 3734 5cb4 eab2 c633 23b3 ac33 2332 7cb3
000001b0: d3b3 0333 40b4 c2b3 91b4 9032 d034 30b4
000001c0: 2f2c 4f29 c62e 8caf aa2d a8ae 79ab 762b
000001d0: 5530 caa9 b79b 5130 1b31 600e d4ad f52c
000001e0: 6834 fb2d d6ab bbac 0c20 002b 18ae 8e2d
000001f0: 312c 732c 3932 0f30 f519 7f25 43a1 4a29

sequential/dense/BiasAdd/ReadVariableOp/resource f2 [16]
-0.01317 -0.007725 -0.0321 -0.04922 -0.08435 0.08307 -0.03867 -0.04736
-0.02188 -0.09045 0.0892 -0.1085 -0.00664 -0.09955 0.0717 -0.0755
00000000: bea2 e99f 1ca8 4daa 66ad 512d f3a8 10aa
00000010: 9aa5 caad b52d f2ae cd9e 5fae 972c d5ac

sequential/dense/MatMul f2 [16, 16]
-0.2732 0.3892 -0.1471 0.3318 0.379 0.3682 0.4492 0.3423
0.004173 -0.1514 0.4158 -0.2377 -0.332 -0.4102 -0.1333 -0.0484
-0.153 0.12054 -0.2351 0.0383 -0.4211 0.266 0.161 -0.368
0.1539 -0.4292 0.3591 -0.02084 0.1348 -0.02861 -0.4084 -0.1168
-0.02188 -0.3237 0.0533 -0.3938 0.3716 0.1996 0.1952 -0.4229
0.3577 -0.37 -0.0856 -0.2554 -0.2435 0.314 0.3054 -0.3025
0.244 -0.2103 0.3743 -0.458 -0.2568 0.073 0.0677 -0.1137
-0.3616 0.2776 -0.01653 0.0737 -0.318 0.273 -0.244 -0.3008
-1.242 2.166 1.089 -3.855 0.5103 -0.1355 -0.4663 0.887
0.768 -3.16 -0.04587 0.9175 0.779 -3.168 -1.232 0.5347
3.168 -1.051 -1.976 3.94 -1.36 0.466 0.08466 -0.3037
-0.541 2.941 0.82 -0.2869 -0.5693 4.61 1.684 -0.736
-0.1087 0.1956 -0.037 0.12305 -0.1521 -0.2732 0.2202 0.2384
-0.2937 -0.1217 0.3076 0.4355 -0.1681 0.1384 -0.4268 -0.14
-1.12 1.668 0.8447 -3.232 0.881 -0.683 -0.4185 0.4133
0.3909 -2.607 -0.11926 -0.064 -0.0322 -2.684 -1.063 0.4663
0.1453 -0.3352 0.3032 -0.1799 -0.10284 -0.2294 0.132 0.059
0.1669 -0.139 -0.3076 -0.021 -0.2554 0.396 -0.06384 0.1011
-1.57 2.338 1.173 -3.502 0.4604 -0.337 -0.7026 0.8516
0.574 -3.434 -0.1089 0.10724 0.5405 -3.201 -1.1875 0.2559
-0.961 -0.108 1.202 -0.4263 0.7275 -0.11926 -0.11346 0.10913
-0.2294 -0.6455 -0.5303 0.3052 0.6167 -1.183 -0.9688 0.6006
-1.072 2.03 1.281 -3.643 0.8486 -0.535 -0.6846 0.6626
0.65 -2.824 0.475 0.8267 0.7964 -2.78 -1.284 0.526
-0.2041 0.08154 0.2866 0.00645 0.0686 -0.3345 0.1046 -0.3086
-0.413 0.2578 -0.0389 -0.03125 0.009796 0.02754 0.2622 0.166
-0.964 1.898 0.7764 -3.902 0.963 -0.581 -0.7676 0.7876
0.442 -3.062 0.4072 0.67 0.651 -2.6 -0.8745 0.575
2.762 -1.225 -1.385 1.574 -1.493 0.486 0.374 0.1902
-0.4534 1.64 0.5103 -0.252 -0.6387 3.615 1.573 -0.5884
-1.178 2.064 0.7993 -3.824 0.605 -0.2947 -0.9253 0.685
0.802 -3.213 0.2866 0.631 0.3994 -3.45 -0.712 0.663
00000000: 5fb4 3a36 b5b0 4f35 1036 e435 3037 7a35
00000010: 461c d8b0 a736 9bb3 50b5 90b6 44b0 32aa
00000020: e5b0 b72f 86b3 e728 bdb6 4234 2731 e3b5
00000030: ed30 deb6 bf35 56a5 5030 53a7 89b6 7aaf
00000040: 9aa5 2eb5 d32a 4db6 f235 6332 3f32 c4b6
00000050: b935 ecb5 7aad 16b4 cbb3 0635 e334 d7b4
00000060: cf33 bbb2 fd35 54b7 1cb4 ac2c 552c 47af
00000070: c9b5 7134 3ba4 b82c 17b5 5e34 cfb3 d0b4
00000080: f8bc 5540 5b3c b6c3 1538 56b0 76b7 193b
00000090: 253a 52c2 dfa9 573b 3b3a 56c2 eebc 4738
000000a0: 5642 34bc e7bf e143 71bd 7537 6b2d dcb4
000000b0: 54b8 e241 8f3a 97b4 8eb8 9c44 bc3e e3b9
000000c0: f5ae 4232 bca8 e02f deb0 5fb4 0c33 a133
000000d0: b3b4 caaf ec34 f836 61b1 6e30 d4b6 7bb0
000000e0: 7bbc ac3e c23a 77c2 0c3b 77b9 b2b6 9d36
000000f0: 4136 37c1 a2af 19ac 1fa8 5ec1 41bc 7637
00000100: a630 5db5 da34 c2b1 95ae 57b3 3930 8d2b
00000110: 5731 73b0 ecb4 60a5 16b4 5636 16ac 782e
00000120: 48be ad40 b13c 01c3 5e37 64b5 9fb9 d03a
00000130: 9838 dec2 f8ae dd2e 5338 67c2 c0bc 1834
00000140: b0bb e9ae cf3c d2b6 d239 a2af 43af fc2e
00000150: 57b3 2ab9 3eb8 e234 ef38 bbbc c0bb ce38
00000160: 4abc 0f40 203d 49c3 ca3a 48b8 7ab9 4d39
00000170: 3339 a6c1 9a37 9d3a 5f3a 8fc1 23bd 3538
00000180: 88b2 382d 9634 9b1e 642c 5ab5 b22e f0b4
00000190: 9cb6 2034 fba8 00a8 0421 0d27 3234 5031
000001a0: b6bb 983f 363a cec3 b43b a6b8 24ba 4d3a
000001b0: 1237 20c2 8436 5c39 3539 33c1 ffba 9a38
000001c0: 8641 e6bc 8abd 4c3e f9bd c737 fc35 1632
000001d0: 41b7 8f3e 1538 08b4 1cb9 3b43 4b3e b5b8
000001e0: b6bc 2140 653a a6c3 d738 b7b4 67bb 7b39
000001f0: 6a3a 6dc2 9634 0c39 6436 e6c2 b2b9 4e39

sequential/dense_1/MatMul f2 [2, 16]
0.0942 -0.326 -0.08264 -0.4177 -2.787 2.627 0.4297 -2.385
-0.373 -2.8 -0.7944 -2.783 0.06058 -2.684 1.957 -2.188
0.0353 -0.3782 0.1633 0.1224 1.762 -2.492 -0.0872 2.4
0.1884 1.735 -0.1765 2.902 0.3784 2.352 -2.143 2.158
00000000: 072e 37b5 4aad afb6 93c1 4141 e036 c5c0
00000010: f8b5 9ac1 5bba 91c1 c12b 5ec1 d43f 60c0
00000020: 8528 0db6 3a31 d52f 0c3f fcc0 95ad cd40
00000030: 0732 f13e a6b1 ce41 0e36 b440 49c0 5140
